_________________________________________________________________
Layer (type)                 Output Shape              Param #   
=================================================================
lstm_17 (LSTM)               (None, 82, 500)           1018000   
_________________________________________________________________
dropout_16 (Dropout)         (None, 82, 500)           0         
_________________________________________________________________
lstm_18 (LSTM)               (None, 82, 500)           2002000   
_________________________________________________________________
dropout_17 (Dropout)         (None, 82, 500)           0         
_________________________________________________________________
lstm_19 (LSTM)               (None, 82, 500)           2002000   
_________________________________________________________________
dropout_18 (Dropout)         (None, 82, 500)           0         
_________________________________________________________________
lstm_20 (LSTM)               (None, 82, 500)           2002000   
_________________________________________________________________
dropout_19 (Dropout)         (None, 82, 500)           0         
_________________________________________________________________
lstm_21 (LSTM)               (None, 500)               2002000   
_________________________________________________________________
dropout_20 (Dropout)         (None, 500)               0         
_________________________________________________________________
dense_4 (Dense)              (None, 11)                5511      
=================================================================
Total params: 9,031,511
Trainable params: 9,031,511
Non-trainable params: 0
_________________________________________________________________
None

Train on 112668 samples, validate on 1139 samples
Epoch 1/20
112650/112668 [============================>.] - ETA: 1s - loss: 1.9112 - acc: 0.2991     Epoch 00001: val_acc improved from -inf to 0.27744, saving model to ../checkpoints/Experiement_1_WITH_Tashkeel_ASIS_OldData//weights-improvement-01-0.28.hdf5
…
