…
model.add(Dense(units = 500,activation = 'relu'))

model.add(Dense(units = 500,activation = 'relu'))

model.add(Dense(units = 500,activation = 'relu'))

# Adding the output layer
model.add(Dense(units = 11,activation = 'softmax'))

# Compiling the RNN
model.compile(optimizer = 'adam', loss='categorical_crossentropy',metrics = ['accuracy'] )

print(model.summary())
Using TensorFlow backend.
['البسيط']
_________________________________________________________________
Layer (type)                 Output Shape              Param #   
=================================================================
lstm_1 (LSTM)                (None, 500)               1072000   
_________________________________________________________________
dense_1 (Dense)              (None, 500)               250500    
_________________________________________________________________
dense_2 (Dense)              (None, 500)               250500    
_________________________________________________________________
dense_3 (Dense)              (None, 500)               250500    
_________________________________________________________________
dense_4 (Dense)              (None, 500)               250500    
_________________________________________________________________
dense_5 (Dense)              (None, 11)                5511      
=================================================================
Total params: 2,079,511
Trainable params: 2,079,511
Non-trainable params: 0
_________________________________________________________________
None


new_model = load_model("weights-improvement-82-0.96.hdf5")

filepath="weights-improvement-{epoch:02d}-{val_acc:.2f}.hdf5"
checkpoint = ModelCheckpoint(filepath, monitor='val_acc', verbose=1)
…
checkpoint = ModelCheckpoint(filepath, monitor='val_acc', verbose=1)
callbacks_list = [checkpoint]


# Fitting the RNN to the Training set
model.fit(X_train_padded, y_train, validation_split = 0.02, epochs=50, batch_size=50, callbacks=callbacks_list)

# Final evaluation of the model
scores = model.evaluate(X_test_padded, y_test, verbose=0)
print("Accuracy: %.2f%%" % (scores[1]*100))
_________________________________________________________________
Layer (type)                 Output Shape              Param #   
=================================================================
lstm_2 (LSTM)                (None, 82, 1000)          4144000   
_________________________________________________________________
dropout_1 (Dropout)          (None, 82, 1000)          0         
_________________________________________________________________
lstm_3 (LSTM)                (None, 82, 1000)          8004000   
_________________________________________________________________
dropout_2 (Dropout)          (None, 82, 1000)          0         
_________________________________________________________________
lstm_4 (LSTM)                (None, 1000)              8004000   
_________________________________________________________________
dropout_3 (Dropout)          (None, 1000)              0         
_________________________________________________________________
dense_6 (Dense)              (None, 11)                11011     
=================================================================
Total params: 20,163,011
Trainable params: 20,163,011
Non-trainable params: 0
_________________________________________________________________
None
Train on 216370 samples, validate on 4416 samples
Epoch 1/50
216350/216370 [============================>.] - ETA: 1s - loss: 0.7420 - acc: 0.7554      Epoch 00001: saving model to ./checkpoints/Experiement6/weights-improvement-01-0.91.hdf5
…
