6_________________________________________________________________
Layer (type)                 Output Shape              Param #   
=================================================================
lstm_7 (LSTM)                (None, 82, 300)           403200    
_________________________________________________________________
lstm_8 (LSTM)                (None, 82, 300)           721200    
_________________________________________________________________
lstm_9 (LSTM)                (None, 300)               721200    
_________________________________________________________________
dense_4 (Dense)              (None, 300)               90300     
_________________________________________________________________
dense_5 (Dense)              (None, 11)                3311      
=================================================================
Total params: 1,939,211
Trainable params: 1,939,211
Non-trainable params: 0
_________________________________________________________________
None

filepath="./checkpoints/Experiement6/weights-improvement-{epoch:02d}-{loss:.2f}.hdf5"
checkpoint = ModelCheckpoint(filepath, monitor='loss', verbose=1)


# ===============================tensorboard===================================
…
